training/data/foldseek_v1/encoder.pt (torch, 3991 bytes, 6 tensors)

weight f4 [10, 10]
-0.5487076 -0.17560382 0.1208897 -0.11483281 -0.36878884 -0.30166575 -0.11337934 -0.35760197
0.18708152 0.06449185 0.0071449177 0.04271611 0.37622103 -0.26653156 0.19307697 0.3028016
0.12587239 -0.008732749 0.13505906 0.19651186 -2.803154 -0.8179926 0.38555256 -0.26644692
0.21350598 0.19799052 0.104990944 0.06895279 0.07732875 -0.08807147 -0.57709545 -0.18957394
0.30969408 -0.09913352 -0.34763348 -0.22633372 -0.10714327 -0.25306693 -0.33599678 0.092019595
0.2324237 0.15387951 0.15528092 0.24826533 0.02392733 0.14400397 0.13719873 -0.18787263
-0.14736792 -0.088327825 0.44139132 0.11976631 0.45921475 -0.037754063 -0.088408545 -0.15660179
-0.15605709 -0.046671305 -0.083169594 -0.20494087 0.42674065 0.47581545 0.7020851 -0.1883095
-0.51638114 -0.4442078 0.08736436 -0.06767679 0.2280028 -0.1573291 0.092369184 -0.09429247
-0.08529841 -0.039200492 -0.38285846 -0.2405096 0.4337692 -0.0961287 -0.14832565 -0.10371329
-0.17033893 -0.19909923 -0.15265846 0.4087192 -0.13842456 0.029651433 -0.049824912 -0.2877896
-0.20600738 -0.016914345 -0.28953853 -0.182232 -0.2668554 0.30005434 -0.090269804 -0.10496355
0.016315678 -0.26482743 0.3898549 -0.10441157
00000000: 1a78 0cbf 7dd1 33be 0595 f73d 772d ebbd
00000010: e4d1 bcbe ef73 9abe 6d33 e8bd 9b17 b7be
00000020: 4c92 3f3e 4e14 843d ea1f ea3b 16f7 2e3d
00000030: 0ba0 c03e d376 88be f8b5 453e d008 9b3e
00000040: b1e4 003e ce13 0fbc ec4c 0a3e 683a 493e
00000050: e066 33c0 f767 51bf 2567 c53e bb6b 88be
00000060: 50a1 5a3e 07be 4a3e 7e05 d73d 1f37 8d3d
00000070: 895e 9e3d d15e b4bd 87bc 13bf ac1f 42be
00000080: 3990 9e3e 8406 cbbd 04fd b1be 07c4 67be
00000090: ee6d dbbd fd91 81be c507 acbe c574 bc3d
000000a0: 7a00 6e3e 9792 1d3e f601 1f3e 4439 7e3e
000000b0: 3f03 c43c c775 133e d37d 0c3e af61 40be
000000c0: 9ee7 16be 38e5 b4bd 0bfe e13e 0a48 f53d
000000d0: 321e eb3e 01a4 1abd 8a0f b5bd 385c 20be
000000e0: 6ecd 1fbe 692a 3fbd d254 aabd 05dc 51be
000000f0: c07d da3e 159e f33e d9bb 333f 35d4 40be
00000100: 8e31 04bf 346f e3be 16ec b23d 219a 8abd
00000110: 9179 693e e11a 21be 0e2c bd3d 691c c1bd
00000120: efb0 aebd b290 20bd 0606 c4be 2648 76be
00000130: ff16 de3e 20df c4bd aee2 17be a267 d4bd
00000140: 546d 2ebe abe0 4bbe 8052 1cbe a543 d13e
00000150: 2bbf 0dbe 90e7 f23c 3515 4cbd 2959 93be
00000160: 99f3 52be f48f 8abc 653e 94be 079b 3abe
00000170: 45a1 88be b9a0 993e 60df b8bd 21f7 d6bd
00000180: 75a8 853c 7697 87be 109b c73e bcd5 d5bd

bias f4 [10]
2.1000834 -0.12459391 0.60064393 1.4150552 0.87496126 -0.11835829 -0.902727 0.22210294
1.7358192 1.3226967
00000000: c467 0640 182b ffbd cdc3 193f 8720 b53f
00000010: 76fd 5f3f d565 f2bd 1e19 67bf f46e 633e
00000020: 532f de3f 204e a93f

weight f4 [10, 10]
0.7736909 0.55391204 -0.5192406 1.3814723 0.5585375 0.40059173 0.8904511 1.6653173
-2.020457 -0.10117515 0.5330839 0.8597789 -0.08082133 -0.34169143 0.08496222 -0.62851626
2.3078446 -0.30669868 -0.6726701 -2.3022485 0.6593917 0.3073599 -0.7543283 -0.16349155
-0.7366653 -0.37472636 1.0917361 -0.24751247 -0.30382234 0.9056527 -1.0300643 -1.4910465
0.07443463 0.55533314 -1.09597 1.3202941 1.7179152 -1.1446337 -0.78151155 1.6849222
1.4890802 -1.2545875 -1.1152214 0.18083592 0.7431972 0.97105044 0.72489125 -0.27004415
-0.7835343 -3.5624874 -2.6623194 0.1429996 -0.12663229 -1.8692043 1.5050226 -0.65957683
0.11090923 -0.061074782 0.5679368 1.5196764 0.97666717 1.0413073 0.67641157 -1.3658428
1.0069746 1.3844157 -0.078333706 1.7848951 -0.3372984 1.1589335 -0.72784644 0.36489534
0.2856896 0.5275515 -0.39049575 -2.5807333 -0.8447085 -0.45542434 0.7498503 0.31387287
-0.9831382 -1.1751047 -0.5752994 0.27557683 1.5719006 0.10756659 -1.0545396 0.1297243
-0.07799383 1.3446159 -0.8249699 1.3411527 -1.1350135 1.2181692 0.7221531 0.43061996
0.6983788 -0.91313225 -2.5752447 1.1128658
00000000: 9b10 463f 2ecd 0d3f f4ec 04bf 16d4 b03f
00000010: 50fc 0e3f 5c1a cd3e 9af4 633f 1e29 d53f
00000020: 2b4f 01c0 eb34 cfbd 3078 083f 781a 5c3f
00000030: a785 a5bd 2ef2 aebe ac00 ae3d 71e6 20bf
00000040: bab3 1340 9c07 9dbe 1c34 2cbf 0a58 13c0
00000050: e5cd 283f 475e 9d3e a91b 41bf 546a 27be
00000060: 1996 3cbf 22dc bfbe 02be 8b3f e973 7dbe
00000070: 9a8e 9bbe dbd8 673f 26d9 83bf 9dda bebf
00000080: 2f71 983d 502a 0e3f bf48 8cbf 66ff a83f
00000090: a5e4 db3f 5b83 92bf 2411 48bf 88ab d73f
000000a0: 2e9a be3f 5396 a0bf 93bf 8ebf 0d2d 393e
000000b0: 2c42 3e3f c396 783f 7992 393f 3a43 8abe
000000c0: b495 48bf cbff 63c0 7163 2ac0 7d6e 123e
000000d0: e5ab 01be 1642 efbf 95a4 c03f 07da 28bf
000000e0: 6124 e33d 8d29 7abd 4e64 113f c284 c23f
000000f0: dc06 7a3f 8f49 853f 4f29 2d3f f0d3 aebf
00000100: 8be4 803f 8934 b13f 6c6d a0bd 7177 e43f
00000110: 60b2 acbe ef57 943f 2554 3abf 90d3 ba3e
00000120: e845 923e 9d0d 073f 0fef c7be bc2a 25c0
00000130: d13e 58bf 612d e9be 30f6 3f3f f2b3 a03e
00000140: f2ae 7bbf d569 96bf d246 13bf 6818 8d3e
00000150: 0a34 c93f df4b dc3d 27fb 86bf 72d6 043e
00000160: 3bbb 9fbd 601c ac3f 3a31 53bf e4aa ab3f
00000170: 1f48 91bf f8ec 9b3f 07df 383f 387a dc3e
00000180: f4c8 323f 09c3 69bf cfd0 24c0 6372 8e3f

bias f4 [10]
-1.8636563 0.54408693 0.5592911 1.3508434 1.0087215 -0.07972717 -2.5164104 0.85413414
1.129854 -0.8244587
00000000: 4a8c eebf 4849 0b3f b42d 0f3f 70e8 ac3f
00000010: c91d 813f 0048 a3bd de0c 21c0 89a8 5a3f
00000020: 0e9f 903f ba0f 53bf

weight f4 [2, 10]
0.3766367 -0.42364687 -0.55551374 0.5510872 -0.42730102 -0.20220636 0.032095067 -0.44959205
0.51347435 0.26025707 0.33160537 -0.2123526 0.1519697 -0.4256357 0.9400726 0.8711937
-0.48871958 -0.60252184 -0.5048833 0.765534
00000000: 87d6 c03e 3ee8 d8be 2636 0ebf 0d14 0d3f
00000010: 33c7 dabe 2f0f 4fbe 1e76 033d ee30 e6be
00000020: 0e73 033f 6a40 853e 2ec8 a93e f672 59be
00000030: f29d 1b3e ecec d9be 99a8 703f 8d06 5f3f
00000040: 7439 fabe df3e 1abf 0840 01bf 09fa 433f

bias f4 [2]
0.5432356 -0.36234748
00000000: 7d11 0b3f 9c85 b9be
